best_model.pt (torch, 223127 bytes, 5 tensors)

weight f4 [32, 2, 7, 7]
000000 d2 e3 03 3d d1 f9 18 3d 28 3c 46 3d 19 ad 2f 3d
       0.03219969 0.03734762 0.048397213 0.04288969
000010 4c 7f 8d bd 18 73 d6 bc 51 d1 19 3d 3c 06 b1 bc
       -0.069090456 -0.026177928 0.037553135 -0.021609418
000020 af 5f dd bd 1d 56 c0 bd f3 7c a8 3d 2a 24 8f bc
       -0.10809266 -0.09391425 0.08226957 -0.017473299
000030 4a 51 6c 3d a0 aa 7c 3d af 8d d1 3c 58 65 3d 3d
       0.05769471 0.06168616 0.025580255 0.046239227
000040 40 3d 3e 3d 36 46 41 3d 8f b7 81 bd 82 82 4e bd
       0.04644513 0.0471861 -0.06333839 -0.05041743
000050 db 4f 1c bd 23 98 d9 bd f6 f5 77 3d f0 68 19 be
       -0.038162094 -0.10624721 0.0605373 -0.14981437
000060 5e 04 e5 bb 88 5d 26 3d 45 f3 b9 3c 5b 35 73 3c
       -0.006989046 0.040616542 0.022699008 0.014844264
000070 84 94 29 3e 77 86 df 3d c8 26 57 3d 7f a2 1b be
       0.1656056 0.10914319 0.05252722 -0.15198706
000080 c0 78 2b bd 01 19 43 3d 65 33 04 3e 86 12 da 3c
       -0.041863203 0.047631267 0.1291023 0.02662016
000090 1f 3c cb bc ce bd 85 bc a2 db 5b 3c 3b 75 94 bc
       -0.024808941 -0.016325857 0.013419064 -0.018122306
0000a0 e3 9c 06 be 2a 23 8d 3d 61 dc 9b bd 6c e8 5d 3d
       -0.13145785 0.06891473 -0.07610393 0.054176733
0000b0 95 5b 14 bd 7f 9d a6 3d c9 a5 b9 3d 0c e7 4b 3d
       -0.036220152 0.08135509 0.09064824 0.04978089
0000c0 d0 d2 07 3c 1f c0 c3 bd 5a 50 46 3d fb 61 39 bd
       0.008290008 -0.095581286 0.048416473 -0.045259457
0000d0 52 49 e2 3c 1f cc 73 bd 42 3b 12 be cf 81 e1 bd
       0.027622852 -0.059520837 -0.14280418 -0.11011087
0000e0 80 9a 9a 3c 96 89 46 3d ac dc f6 3c a5 0f 26 bc
       0.0188725 0.048471056 0.030134521 -0.010135566
0000f0 fc 14 eb bd fe 28 ff bc c4 d1 ce bd 89 cc b4 3c
       -0.11478612 -0.031147476 -0.10098603 0.022070186
000100 53 22 a6 bd a0 24 d3 bd 7e d4 37 bd 43 7a 06 be
       -0.081120156 -0.1030972 -0.044880383 -0.13132577
000110 f6 7b ba bd 0c 54 0c bd f4 1a af bd 2d 05 e4 bd
       -0.09105675 -0.03425984 -0.08550063 -0.111338
000120 f5 b3 4e 3c 2b 93 ce bd 2a 3b 95 3c 43 69 ba bd
       0.012616147 -0.10086664 0.018216688 -0.09102108
000130 c7 45 02 bc fc 9e 1f be e6 36 c1 3c 6c 80 a1 bd
       -0.0079512065 -0.15587991 0.023585748 -0.07885823
000140 6b 69 c1 bd e1 76 c2 bc 0c ae fa bd 6a ab e3 bd
       -0.09443935 -0.023738327 -0.12240228 -0.11116679
000150 49 02 d7 3d f1 b4 29 bb 40 f6 1b 3d 2c 35 e2 3d
       0.10498483 -0.0025895203 0.03807664 0.11045298
000160 d3 34 cc 3b cb 93 38 3c 8b 12 d4 3d f6 dd 99 3d
       0.006231883 0.011265705 0.10355099 0.07513039
000170 b8 37 61 bc d0 55 11 bd c9 ce 50 bd 3a 4c c3 bd
       -0.013746195 -0.035482228 -0.050978456 -0.095360234
000180 75 ab 90 3d 8b 97 45 3d 6d 03 ca bb 5a 91 a9 bd
       0.07063953 0.048240226 -0.006164959 -0.08279677
000190 dd 96 a9 bd 3d cf af 3d 1a ea 8c bd 7a 8d 5e 3c
       -0.08280728 0.085844494 -0.06880589 0.013583535
0001a0 01 10 eb bc 76 4a 86 3d 02 51 30 3d 3c 9f ae 3d
       -0.028694155 0.06557171 0.043046005 0.08526465
0001b0 3c 5a e1 3d 75 5d c3 3c 38 01 dc bb 17 40 c4 3b
       0.11003539 0.023848275 -0.0067140125 0.0059890854
0001c0 45 29 a1 3c 93 23 e5 bd 84 96 22 bd 4a 89 ac bd
       0.019673 -0.11188426 -0.039694324 -0.08424623
0001d0 a8 54 84 bd f7 f0 84 3d 2f 01 63 bd 5e 48 63 3d
       -0.064614594 0.06491273 -0.05542105 0.055488937
0001e0 8d 52 7a 3d a8 0c d3 3d 00 85 1d 3d d4 6c 45 bd
       0.061113883 0.10305148 0.038456917 -0.04819949
0001f0 97 bf f1 3d 10 af 06 3b 58 23 b2 bd 3b a8 af 3c
       0.11804121 0.0020551123 -0.086981475 0.021442523
000200 d8 6c 8f bd 8e 92 5f bc bf da 30 3d a6 d7 5c 3d
       -0.07003182 -0.013645781 0.043177363 0.053916596
000210 ae 48 f8 3c 1f 46 b0 bc e3 c2 96 bb 96 2d 61 bd
       0.030308094 -0.021517811 -0.004600869 -0.054975115
000220 49 a8 ea bb 88 b6 23 be 59 1c 98 b9 1d f1 26 bd
       -0.0071611744 -0.15987599 -0.0002901282 -0.040757287
000230 7a 55 18 3b 8b 1a a3 3d 4b de 90 3d 3a d3 01 3e
       0.0023244307 0.07964047 0.07073649 0.12678233
000240 ac d8 8a 3c 28 34 7f 3c 62 59 d3 3c 45 e7 54 3c
       0.01694902 0.0155764 0.025799457 0.012994592
000250 95 e2 29 bc 80 d5 8a 3c 57 c1 c1 bd e9 85 bc 3b
       -0.010368963 0.016947508 -0.09460705 0.005753268
000260 b5 9d f8 bd 11 65 c2 bd 08 59 1a bd 09 a9 e1 bd
       -0.12139455 -0.09491933 -0.037682563 -0.11018569
000270 1a d9 83 bd 73 71 d4 3c ea 21 fa 3b 8b ce b1 bd
       -0.06437893 0.025933003 0.0076334374 -0.08681973
000280 86 f0 11 be 9d 62 ca bd e8 c0 00 be 00 2a 03 be
       -0.14251909 -0.0988209 -0.12573588 -0.1280899
000290 cc ca ac bd e2 50 9f 39 7d 4f 0b bd 37 dc 79 bd
       -0.08437118 0.00030387106 -0.034011353 -0.06100103
0002a0 1e 4e 14 be 88 76 79 bc 59 88 06 bd 5a e2 af bd
       -0.14482924 -0.015226014 -0.032844875 -0.08588095
0002b0 5e d7 29 3c 49 4c 06 bd 78 74 09 bd ed 7a e6 3a
       0.010366289 -0.032787595 -0.03355834 0.0017584242
0002c0 18 42 5a 3b a8 09 a8 bc 46 c1 b5 3c 38 1a 03 bd
       0.0033303555 -0.020512417 0.022186887 -0.032007426
0002d0 3f 80 83 3d a2 dd b2 3c 32 f6 3e bd 96 2a d8 bb
       0.064209454 0.021834198 -0.04662151 -0.0065968735
0002e0 0b 09 92 3d f8 40 e5 bc 65 3e 42 3d 60 26 b5 3d
       0.07130631 -0.027985081 0.047422785 0.0884521
0002f0 02 22 64 bc f5 01 1a be ee 9d 93 bd 78 ac 33 3c
       -0.013924124 -0.15039809 -0.07207857 0.010966413
000300 e0 95 81 bd e2 43 ca bd bd 78 eb 3c 0c e0 15 3c
       -0.063274145 -0.09876229 0.028744096 0.009147655
000310 9b a5 de 3d 3c 95 ad bd a4 46 90 bd a5 c5 9b bb
       0.108714305 -0.0847573 -0.07044724 -0.0047537857
000320 c9 2d b7 bc 24 41 9e 3d 90 c4 8e 3d 23 3b 44 3d
       -0.0223607 0.07727268 0.06971085 0.04790796
000330 e7 28 d1 bd f7 b2 ec bb ae 6b 30 3d 37 a9 74 3d
       -0.1021288 -0.0072234827 0.04307144 0.05973169
000340 aa 8d 65 3d ac b2 97 3c 7d b0 1f 3e b1 93 a0 bd
       0.056043305 0.018517815 0.15594669 -0.0784067
000350 6e f9 53 3d a9 97 ab bd cf 49 f8 bd f3 d4 6f 3d
       0.051751547 -0.08378536 -0.12123453 0.058552694
000360 16 4d a5 bd 27 8c 58 3e 48 83 26 3d 5d 75 fd 3c
       -0.080713436 0.21147214 0.040652543 0.030939752
000370 cd 56 b5 3d 01 5c 98 bd 6c db 03 3d f4 54 09 3e
       0.088544466 -0.07439423 0.03219168 0.13411313
000380 68 bc 0e 3e 15 9f 1e be eb b1 9b bc c8 b4 2a bd
       0.13939059 -0.15490372 -0.019005736 -0.041676313
000390 92 1d fa bd 5e d7 0b 3e 2a 74 bb 3d b5 97 87 3d
       -0.12212671 0.13656375 0.09153016 0.06620733
0003a0 bf 08 01 bd 16 33 b1 bc 49 02 89 bc 29 47 51 3b
       -0.03150248 -0.021630805 -0.016724722 0.0031933284
0003b0 f6 cc 89 3d 09 af 02 3b 15 da d0 3d ca 7e a2 bd
       0.06728546 0.0019940755 0.10197846 -0.07934339
0003c0 f5 74 23 3d 6d 6c 6c 3d 4f 4f c7 bd dd 7b 9e 3d
       0.03990646 0.05772059 -0.09731924 0.07738469
0003d0 74 5f a3 3c 62 da 5b bd ae 59 ba 3d 1d 50 93 bd
       0.019942977 -0.053675063 0.09099136 -0.07193015
0003e0 2a 8b 2e bd 29 4a 1d bd 1d c3 34 3d 51 36 be bd
       -0.042613186 -0.038400803 0.044131387 -0.09287704
0003f0 50 f3 aa bd b5 2b 95 3c 11 24 bd 3d 1d f5 cd 3c
       -0.083471894 0.018209318 0.09235395 0.025141293

bias f4 [32]
000000 d1 6d a2 bd 90 1b f7 bd 11 af 02 be 73 7a 40 bd
       -0.07931102 -0.12065804 -0.12762095 -0.046991777
000010 49 f6 82 bd a9 02 3c bc f7 92 99 bd aa bc 16 be
       -0.063946314 -0.011475244 -0.074987344 -0.14720407
000020 46 4a bc bc 29 d2 cc bd c8 ab a0 bd c5 4d 89 be
       -0.022984635 -0.10001022 -0.07845265 -0.26817146
000030 81 b7 09 3e b0 a1 56 bc f0 ee 9e 3d 74 5a e5 bd
       0.13448907 -0.013100073 0.077604175 -0.11198893
000040 21 b1 0d be da cd 55 bd ea 08 85 bd 80 d5 e9 3d
       -0.138371 -0.05219827 -0.06495841 0.11417675
000050 63 5b 84 be cd 07 22 be 2d 09 0e 3e c1 5a 2d be
       -0.25850973 -0.15823288 0.13870688 -0.16929151
000060 09 3f c7 3c e1 f2 38 be a7 3c 00 3d f7 93 6b bd
       0.02432205 -0.18061401 0.031307843 -0.057514157
000070 e0 63 5c be 4a c4 4f be 63 65 df bd 17 23 0b be
       -0.21522474 -0.20289722 -0.1090801 -0.13587604

weight f4 [32, 32, 7, 7]
000000 40 bc 12 be ab e0 5c bd 16 30 9d bd 17 72 a9 bd
       -0.14329624 -0.053925198 -0.07675187 -0.08273714
000010 14 98 67 bd de ac f4 bd 89 1e 85 bd 1f 7a bf bc
       -0.056541517 -0.11947034 -0.06499965 -0.023373662
000020 59 b4 4b bd b0 b4 b0 3c b9 5d 74 3d 07 a4 df 3d
       -0.04973254 0.021570534 0.059659693 0.109199576
000030 ac a4 b9 3c f8 a2 0f 3d a9 61 b1 bd 0b 26 8f bd
       0.02266153 0.03506753 -0.08661205 -0.06989678
000040 27 ad bd 3d e2 55 52 3e 59 ae 24 3e 4f 71 59 3d
       0.09261542 0.20540574 0.16082133 0.053086575
000050 38 dd 0f ba 63 c3 0f be 92 49 27 be 38 e8 d1 bc
       -0.0005487981 -0.14039378 -0.16336659 -0.025623426
000060 33 35 a2 3d 18 79 7f 3c 98 39 31 bd 20 a5 fa bd
       0.07920303 0.015592836 -0.043267816 -0.12238526
000070 33 e9 23 be 2c 01 18 be 1c 8b 0b be d1 7b a2 bd
       -0.16006927 -0.14844197 -0.13627285 -0.07933772
000080 18 2d 36 bd 3a c6 e4 bc 92 35 03 be b3 54 17 bd
       -0.0444766 -0.027926553 -0.12813404 -0.03694601
000090 cc b2 07 bd 2e 34 da bc 22 d0 c6 3c 7a f3 4a 3d
       -0.0331295 -0.02663621 0.024269167 0.049548604
0000a0 b8 5a 1a 3c 5f cf 74 bd c2 8f 96 3b e5 60 2f 3d
       0.009421043 -0.059768077 0.004594774 0.042817015
0000b0 b8 a9 a0 bb 36 57 bb 3d e9 b6 7a 3d 96 67 50 3c
       -0.0049030446 0.091474935 0.061209593 0.012720009
0000c0 f3 be c8 3c 7f 32 4b bd 76 f9 ad bd 69 7f 00 bd
       0.024505114 -0.049608704 -0.084948465 -0.031371508
0000d0 b6 53 d5 bd 44 09 85 bd e9 de 66 bd 1d 4e 6c bd
       -0.10416357 -0.06495908 -0.056364927 -0.057691682
0000e0 93 05 34 3d 03 1d 23 bc a1 71 aa bc 8c e2 86 bb
       0.04395063 -0.009955647 -0.020806136 -0.004116362
0000f0 9b 38 d6 3b eb c2 c5 3c c8 54 61 3d 58 41 78 3d
       0.0065375096 0.024140796 0.055012494 0.06060919
000100 bf f3 5b 3d 41 e3 11 3d be 0a 40 3d cd 6a 15 bd
       0.05369925 0.035617117 0.046885245 -0.036478806
000110 46 99 0c bd 81 83 94 bd 4f fa 06 bd 5b 03 3d 3a
       -0.03432586 -0.07251645 -0.032953557 0.0007210278
000120 9c 73 6a 3d 56 e6 1a 3d 23 97 f8 3c 4d 5d a8 3d
       0.05723916 0.03781732 0.030345505 0.08220921
000130 8f 60 a7 3d 7b 84 8f bc fc c3 74 3c 5b 2f 73 3d
       0.08172714 -0.017519226 0.014939304 0.059371334
000140 ac 3d d6 bc 76 1e b2 3c ac 8c cc 3c 9a c8 49 bd
       -0.026152454 0.02174304 0.024969421 -0.049263574
000150 9a e6 4c bb 21 ad b1 3c a7 55 21 3d b1 3f 8a bc
       -0.003126538 0.021689 0.039388325 -0.016876074
000160 0e dc 38 3c c6 94 4b bc c9 8c 92 bc 25 ec db 3c
       0.011282934 -0.012425607 -0.017889397 0.026846
000170 a7 ff 94 3c 6a 38 f9 3c e4 bf 07 3d 89 b3 88 3d
       0.01818831 0.030422408 0.033141986 0.066748686
000180 fc cb bc 3d 87 90 27 3d 7e 14 1c bb 9b b1 0a bd
       0.092185944 0.040909316 -0.0023815925 -0.033860784
000190 66 60 8c bb c8 d1 35 3b 5e 69 c6 3d df 63 d3 3d
       -0.0042839525 0.0027743448 0.09688066 0.10321783
0001a0 db 5a f9 bc e3 ae c0 bb 7d e8 8b bd 0e 6e b7 3b
       -0.030438831 -0.005880223 -0.06831453 0.0055978363
0001b0 97 35 77 3c 44 72 63 3d 90 5c 01 3e dd 36 93 3c
       0.01508846 0.055528894 0.12632966 0.017970497
0001c0 23 fe 0a bd 9f 95 58 bd 6a 37 d4 3b d9 4b b9 3d
       -0.03393377 -0.052877065 0.0064763324 0.0904767
0001d0 bc ea 75 3d c3 2a 9f 3c 18 37 28 bd fe 39 05 be
       0.060038313 0.01942957 -0.041068166 -0.13010404
0001e0 45 5e 49 be 93 56 7b bc ea 65 6f 3d ed 21 36 bd
       -0.19664867 -0.015340465 0.058446802 -0.044465948
0001f0 08 5d be bd 90 66 9f bd ee 33 c3 bd bc 2e 44 be
       -0.09295088 -0.07783234 -0.09531389 -0.19158453
000200 66 93 bb bc 82 c7 81 3c 39 94 97 bd 5c d9 72 bd
       -0.022897433 0.015842203 -0.07401318 -0.05928932
000210 83 69 94 3b 2a 13 e3 bd cb a6 31 be 56 57 76 3d
       0.0045291795 -0.1108764 -0.17348783 0.060141884
000220 e7 6c 02 3d 1c 9c 40 bd 9f ba 47 bc bf c2 91 3c
       0.03184214 -0.047023878 -0.01219049 0.017793057
000230 44 c7 97 bd c1 07 99 3c 33 2f df 3d 3c bd 42 ba
       -0.07411054 0.018680455 0.108976744 -0.0007428711
000240 fe 2f 3c bc 8c 0b 13 3c 5e 7a 2f 3c e0 bb e3 3d
       -0.011486052 0.008974921 0.010710327 0.11119819
000250 71 ce dc 3d 25 2e 49 3d bb ca 5a 3d 87 eb b2 3d
       0.10781563 0.049116272 0.053415995 0.087363295
000260 cf 13 8b bd 83 82 b9 bc 99 13 2c 3d 06 27 88 3d
       -0.067908876 -0.02264524 0.042010877 0.06648068
000270 0c 4e 64 3d 2a 67 46 3b ad f1 2e bd f2 5f 5d be
       0.055738494 0.0030273893 -0.04271095 -0.21618631
000280 e4 1d 3d be 93 b3 3a bc 07 7d 4a 3c a5 2b f1 3c
       -0.18468434 -0.011395353 0.01235891 0.029439757
000290 20 b4 99 bd 93 99 8e bd a1 5d 91 bd 47 18 35 be
       -0.07505059 -0.06962886 -0.070979364 -0.17685042
0002a0 95 93 1e bd a9 e8 87 bd ea 4d 96 bd 08 8a f4 bd
       -0.038714964 -0.06636173 -0.0733908 -0.1194039
0002b0 54 f8 b4 bd c7 58 32 bd a9 16 5c be c5 df 8e bd
       -0.08836427 -0.043541696 -0.21493019 -0.069762744
0002c0 8d 7f 86 bd 80 11 80 bd d6 fa 04 be 71 1f 47 bc
       -0.06567297 -0.06253338 -0.12986311 -0.012153492
0002d0 0c 6e ed bd 81 23 25 be a3 85 18 bb b3 1b 33 bc
       -0.115932554 -0.16126825 -0.0023273013 -0.010931897
0002e0 22 84 af 3c 24 7e 42 bd 79 f3 b6 3d 1a a1 ce bd
       0.02142531 -0.04748358 0.089331575 -0.100893214
0002f0 df a3 02 be 2c 3b c7 ba bb 64 50 3c de 1c 40 bb
       -0.12757824 -0.001520013 0.0127193285 -0.0029314081
000300 54 1f 32 bd 0c 57 09 3e b1 52 69 bd 11 5f 29 bd
       -0.043486908 0.13412112 -0.056963626 -0.041350428
000310 d5 10 f9 bc 7c 59 82 3d 6f d4 e0 ba cc 9c 5f 3d
       -0.030403534 0.06364724 -0.0017153154 0.054592893
000320 cd 95 4e 3d ab 74 22 bc f5 e2 ee bb e3 a2 ab 3b
       0.05043583 -0.009915511 -0.007290239 0.0052379235
000330 36 fb a6 3d 2e 27 43 3d 32 f6 63 3d f8 68 b3 3c
       0.081533834 0.047644787 0.055654712 0.021900639
000340 8c 80 1a bc 96 a4 3b bd 3a 08 1a 3e c1 55 cb 3d
       -0.009430062 -0.04581126 0.150422 0.09928466
000350 ae d3 46 3d 84 51 00 3d b0 ac 79 bd fd 15 af bd
       0.048541717 0.03132774 -0.060955703 -0.08549116
000360 b3 0b ca bd 18 a3 73 3d 44 05 85 3a e5 1a 5b bd
       -0.09865513 0.05948171 0.0010148664 -0.053492445
000370 7d bb ad bd 62 2b a9 bd c5 61 82 bd ab 56 06 bd
       -0.08483026 -0.08260228 -0.06366304 -0.032797497
000380 fd dc 9b bd d8 f7 a6 bd 9a f7 ca bd 70 f6 fc bc
       -0.076105095 -0.08152741 -0.099105075 -0.03087923
000390 90 06 d0 bc 4c d2 a2 bc 47 ed d2 3a 1c d7 2f be
       -0.025393754 -0.019875668 0.0016092443 -0.17171901
0003a0 0c 4a a7 bd 96 67 8e bd d9 00 00 bb a9 e3 4a 3d
       -0.0816842 -0.06953351 -0.0019531755 0.04953352
0003b0 e7 25 d4 3d 22 b7 b9 3d 75 24 18 be e6 c7 37 bd
       0.10358792 0.09068133 -0.14857657 -0.044868372
0003c0 6a cd af bc 11 81 a2 3c 91 cb 47 3d 28 6f 9c 3d
       -0.021460254 0.019836934 0.04877812 0.07638389
0003d0 2b 61 c8 3d 5b d5 42 bd 43 1f d8 3c 7b 7b 3e bd
       0.09784158 -0.047566753 0.026382094 -0.04650448
0003e0 ca f5 2b bd b8 de 51 3d 9f 42 a6 3d df 22 b0 3d
       -0.04198245 0.05123779 0.08118176 0.08600401
0003f0 f9 c6 a7 3c e6 c5 1e 3d bd 87 f2 3c 1d c1 53 3c
       0.02048062 0.03876295 0.02960574 0.01292446

bias f4 [32]
000000 ed 54 24 3c 50 6a 8b bd 5e e9 af 3d dc 01 28 bb
       0.0100300135 -0.06807387 0.08589433 -0.0025635874
000010 64 57 05 bd cb a3 63 bd d0 89 0d bd 56 14 02 bd
       -0.032554045 -0.055576127 -0.034555256 -0.031757675
000020 80 c9 f4 bd 73 62 fc 3c 9d 1c cf bd 17 b7 0d 3d
       -0.119524956 0.030808663 -0.101128794 0.034598436
000030 b3 ce 40 3d 4b 9a 8a 3d f8 11 d1 bd aa 22 db bd
       0.047072124 0.0676771 -0.102085054 -0.10699971
000040 17 80 47 bd 50 8b 5b bd af 18 c4 3d 24 07 32 3e
       -0.04870614 -0.053599656 0.095750205 0.17385536
000050 e2 6a 57 bd 11 95 30 3d 74 2a ca 3d 2a 67 b0 bc
       -0.052592166 0.04311091 0.098713785 -0.021533567
000060 62 9a e6 3d 0c b2 66 bc 37 3c f8 bc 94 1e 6c bd
       0.11259915 -0.014080536 -0.03030215 -0.05764635
000070 f6 04 38 bc 59 8b 9b bd 2e dc d3 bb a5 ad 72 bd
       -0.0112316515 -0.07594938 -0.0064654564 -0.05924763

weight f4 [1, 32, 7, 7]
000000 1b c0 e3 bc f2 87 a7 bc 8b 62 22 bd 03 82 31 bd
       -0.027801564 -0.020450566 -0.03964476 -0.04333688
000010 a8 6a 8c 3b 9a 71 11 3d 88 5b aa 3c a8 42 b4 bc
       0.0042851754 0.03550873 0.020795599 -0.02200444
000020 f3 84 5d bc 86 5d c1 39 3a 2e 40 bd e9 81 b2 ba
       -0.013520467 0.0003688151 -0.046919085 -0.0013619039
000030 43 91 05 3d 81 69 4a 3c 07 2f 56 bd 06 de ae bc
       0.032609235 0.012354256 -0.052290943 -0.021346103
000040 6e 5d 9e bc c2 ef 9b bd a3 f9 4b 3b 8d 10 38 3d
       -0.01933166 -0.076140895 0.0031124137 0.04493766
000050 44 16 01 3d 33 c9 27 bd 16 c4 45 bd b5 e0 4d bd
       0.031515375 -0.040963363 -0.048282705 -0.050263125
000060 81 cd a7 bd c3 ee 6e 3c 85 74 b8 3c 22 ec 0e 3a
       -0.08193494 0.014583292 0.022516498 0.00054520566
000070 ce 3e 0a 3d ca 23 03 3d ef da b2 3c 11 e0 0d 3c
       0.0337513 0.032016553 0.021832911 0.008659379
000080 f4 0e db 3c 95 53 07 3c 9f f0 70 39 f1 d7 16 3d
       0.026740529 0.008259674 0.00022977822 0.03682703
000090 65 fb c7 3c 6a 78 93 3c dd 14 cc 3c d8 f1 99 3c
       0.024411866 0.018001754 0.024912292 0.018792078
0000a0 26 39 15 3a c3 85 09 3a ab 16 b4 3c 9a 50 8b 3c
       0.00056924147 0.00052460673 0.021983465 0.017006207
0000b0 55 c5 a7 3c 2b df 2d 3c a7 c1 fb 3b 52 02 8a 3b
       0.020479837 0.010612289 0.0076829973 0.0042117024
0000c0 84 8e 18 3c a1 80 a5 3c 34 e0 36 3b e4 24 dd 3b
       0.009311322 0.020202937 0.0027904632 0.0067487825
0000d0 0f ce ac bc 38 0f 16 3c 6f 0d 12 bc a3 13 ac bc
       -0.02109435 0.009158902 -0.008914336 -0.021005457
0000e0 ce 4a 89 3b 10 33 45 3b ba de c9 bc dc 15 ac bc
       0.0041898256 0.003009025 -0.024642337 -0.021006517
0000f0 7b 8f 39 3c 3e 24 8a 3c e2 28 93 bc 79 31 e9 3c
       0.011325712 0.016862985 -0.01796383 0.028465973
000100 f0 9f 2c 3b 3d 96 ac bb 59 6c 99 3a c9 b6 37 3b
       0.0026340447 -0.0052669332 0.0011705264 0.0028032532
000110 fe 54 97 3b 6b 24 c1 bc 7d 81 9b bb 5c df 7d bc
       0.004618286 -0.023576936 -0.004745661 -0.015495148
000120 cf 9e 2f bd 1c f2 8c bc dc 5d aa 3b 69 d1 06 bc
       -0.04287606 -0.01720529 0.005199177 -0.008228638
000130 20 e8 86 bc 96 88 c4 3c e1 4f 04 3c e7 d9 a3 bc
       -0.016468108 0.02399091 0.008075685 -0.020001365
000140 df 89 50 b9 e0 88 06 3b b0 49 c7 bc fe 56 1f 3c
       -0.00019887787 0.0020528361 -0.02432713 0.00972533
000150 50 c8 71 3c 29 a2 b2 bc d3 a0 61 bc 5b 23 ab bb
       0.014757231 -0.02180584 -0.013771254 -0.0052227206
000160 7f 62 fe bc e0 ab fc 3a c4 ef 99 bc 38 dd 06 3a
       -0.031052826 0.0019277297 -0.018791087 0.00051446585
000170 2c 22 b6 bc 08 7b 10 bd 6e 5b 02 bd e2 81 70 bd
       -0.022233091 -0.03527358 -0.031825475 -0.058717616
000180 64 72 57 3c 70 7c 95 3b 80 06 9d bd 0b 85 09 bd
       0.013149831 0.0045619532 -0.076672554 -0.033574145
000190 45 0f 1b bd e6 d8 33 bd 2d 7c 95 bd 71 26 92 bd
       -0.03785636 -0.043908022 -0.07299075 -0.07136238
0001a0 46 56 0b be 54 64 d1 bc 06 4a 97 bc 8f f8 16 3b
       -0.1360713 -0.025560535 -0.018467914 0.0023036336
0001b0 58 ea a0 bc 0d 89 f1 bc d6 5f f3 bc 6b 9c bb bd
       -0.019642994 -0.029484296 -0.029708784 -0.09160694
0001c0 03 80 48 bd 07 6c e9 bc 0e 89 40 bd 54 91 4b bd
       -0.048950206 -0.028493894 -0.047005706 -0.049699143
0001d0 07 77 64 bd af 36 1c bd b7 cd 89 bd 2e 14 98 bd
       -0.055777576 -0.038138088 -0.0672869 -0.07425724
0001e0 30 de d8 3a 4f af ca bc 26 d8 0a bd e9 cb 2b bd
       0.0016545709 -0.024741797 -0.03389754 -0.04194251
0001f0 2c ec 85 bd ca 4b 61 bd c6 06 2e bd 0d 72 13 bd
       -0.06539187 -0.05500392 -0.04248693 -0.03599744
000200 24 13 ea bc 11 f5 84 bb de 84 20 bd 40 b6 3a bd
       -0.02857358 -0.0040575345 -0.039189212 -0.045583963
000210 3b 11 8d bd 22 bb 1a bd 6c eb ba bc 2a 2e 22 3c
       -0.06888052 -0.03777612 -0.022817336 0.009898702
000220 bf 65 80 bc 1c f1 5a bb 8f c8 18 bd 75 2e 53 bd
       -0.015673516 -0.0033407873 -0.037300643 -0.051557977
000230 d3 ac 54 bd ce ef 09 bd 29 da 4f bd 5d e2 02 bd
       -0.05192263 -0.03367596 -0.050745163 -0.031954158
000240 58 d3 7a bd 67 63 b9 bd fd b6 ee bd 58 7b 14 3d
       -0.06123671 -0.090521626 -0.11655996 0.036250442
000250 33 2a dd 3c ca 40 94 3c e9 80 27 3d 83 ab 0e 3d
       0.026997661 0.0180973 0.040894423 0.034831535
000260 c8 6c 29 3d 6f 55 81 3d 99 58 37 3d 7b 2a 9c 3c
       0.041363508 0.06315123 0.044762228 0.019063225
000270 f5 56 2d 3d dc f8 88 3c 0a ab 5d 3d 89 c2 f6 3c
       0.042319257 0.016720228 0.054118194 0.030122058
000280 27 0a 08 3d a5 f9 74 3d e9 04 04 3d c5 a6 c6 3c
       0.033212807 0.059808392 0.032231245 0.024249444
000290 df 4f 3a 3d 2f db 0a 3d 5d 12 0a 3d 0b ef 0e 3d
       0.045486327 0.033900436 0.03370892 0.034895938
0002a0 8f a1 19 3d eb bb 1c 3d 9d c7 3b 3d 9f 1f 6f 3d
       0.03750759 0.03826515 0.045844663 0.058379766
0002b0 cb 48 52 3d 73 ff 42 3d 80 be 07 3d f8 cf 6b 3d
       0.051338952 0.047606897 0.03314066 0.05757138
0002c0 67 86 36 3d 5e 92 81 3d 2a b1 1c 3d e2 3d 38 3d
       0.04456177 0.063267455 0.038254894 0.04498089
0002d0 80 d1 0f 3d 3f 4c 72 3d c7 34 16 3d e3 78 e9 3c
       0.035111904 0.059154745 0.036671426 0.028500026
0002e0 4b ed a1 3c 19 e2 49 3d 46 df b0 3c 39 e4 c3 3c
       0.01976647 0.04928789 0.02159084 0.023912536
0002f0 03 a2 29 3d b6 5f 47 3d eb b2 31 3c 93 23 f0 3c
       0.041414272 0.04867526 0.01084588 0.029313838
000300 0b 6d dc 3c 6a 6c 35 3d da 58 f0 3c b5 ed 31 3d
       0.026907464 0.044292845 0.029339243 0.043439586
000310 e7 1f 43 3c 18 49 b3 bc 61 b2 2e 3b d7 83 49 ba
       0.011909462 -0.02188544 0.0026656615 -0.0007687187
000320 1c b1 90 bb be 71 13 bc 75 fd a8 bc 28 eb 9a bc
       -0.0044156443 -0.008999286 -0.02062867 -0.01891096
000330 7d 6f e6 bb 72 2f a2 3c f5 74 05 bc be 55 22 3c
       -0.0070323334 0.019798014 -0.0081455605 0.009908138
000340 d5 b2 29 3c 96 ad 25 3c 62 63 85 bc 07 70 3a 3c
       0.010357578 0.010112187 -0.016282741 0.011379248
000350 c0 2b d6 bc 1d 65 f7 bc e5 be cd bb 81 60 ad bc
       -0.026143909 -0.030199582 -0.00627886 -0.02116418
000360 ef 62 41 3c b1 59 c9 ba 8f 54 6c 3c 8a 76 4d 3c
       0.011803373 -0.0015361813 0.014424457 0.012540469
000370 8b e0 b5 3b 53 cb 5a 3b 9c 29 8b 3c 1d 24 f3 3b
       0.0055504492 0.003338535 0.016987614 0.0074200765
000380 2e 00 a3 3b 92 50 6a 3c aa 86 3c 3c 60 fa 46 3c
       0.0049743867 0.014301436 0.011506716 0.012144655
000390 ea d5 4c bc bc d6 df bb 13 e5 2c bc aa e0 82 3b
       -0.012502173 -0.0068310183 -0.010552662 0.003994067
0003a0 ea e5 26 bc bc 9c 8c bc e4 11 ba ba 11 84 e7 3b
       -0.010186652 -0.01716458 -0.0014196006 0.007065304
0003b0 f1 4c 8d bc a1 06 28 bc e1 e9 99 bb c4 f0 7e 3c
       -0.017248603 -0.010255487 -0.00469707 0.015560333
0003c0 08 1d a5 bc 4b 4a 87 ba a7 bc 9e b9 3d 7b be 3b
       -0.020155445 -0.0010321824 -0.00030276665 0.005813031
0003d0 99 54 cb 3c ea aa a2 ba 08 4b 78 3b 75 34 9b 3b
       0.024820613 -0.0012410556 0.003788652 0.004736478
0003e0 6d bd fd bb 5c 2c 21 bc 6b b7 6e 3c 93 49 1d 3c
       -0.0077435286 -0.009837236 0.014570097 0.009600061
0003f0 f3 11 35 bc 85 ff 37 3c 76 e4 ee bb 1d 1c 41 bc
       -0.011051643 0.011230354 -0.0072904183 -0.011786488
